rl_agent/critic.pkl (torch_old, 12629 bytes, 5 tensors)

fc1.weight f4 [50, 5]
0	0xbed2a87b	-0.41144165
1	0x3e50d06f	0.20392011
2	0x3ebb1149	0.36536625
3	0xbc248af0	-0.010042891
4	0xbe094b16	-0.1340755
5	0xbe2a605c	-0.1663832
6	0x3e485d9f	0.19566964
7	0x3edd5570	0.43229246
8	0xbe6b61a2	-0.22986463
9	0xbcfe9ddd	-0.031081134
10	0xbe2e8dc5	-0.17046268
11	0x3e9a0271	0.30079988
12	0xbdfdda97	-0.12395208
13	0x3e9e7a98	0.30952907
14	0x3e29b42d	0.16572638
15	0x3e19a3f9	0.15003957
16	0x3ed285dd	0.41117755
17	0xbec118cc	-0.3771423
18	0xbf039a65	-0.5140746
19	0x3e66caf5	0.2253836
20	0xbcc81a40	-0.02442658
21	0xbddb3b87	-0.10704713
22	0x3e54c6a4	0.207789
23	0xbd5add3b	-0.053433638
24	0xbde72466	-0.11286239
25	0xbd9e3eb6	-0.07726805
26	0xbe36fef7	-0.17870699
27	0x3e3868fa	0.18008795
28	0x3d8084b6	0.062753126
29	0x3e00b727	0.12569867
30	0xbddecb95	-0.10878674
31	0x3eb64f93	0.35607585
32	0x3e06f6e0	0.13180113
33	0xbd85fbdb	-0.06542178
34	0x3dfb5ccf	0.12273561
35	0xbea421d6	-0.32057065
36	0xbe1569fd	-0.14591213
37	0x3c9f1d86	0.019423258
38	0xbe35ff9a	-0.17773286
39	0x3e7e97a5	0.24862535
40	0x3ebb639c	0.36599433
41	0x3ed56d99	0.4168518
42	0xbe7b0da3	-0.24516921
43	0xbe8f2b96	-0.2796294
44	0x3ec63eef	0.3871989
45	0x3eec8da2	0.46201807
46	0x3e9375f5	0.28800932
47	0xbd923a0d	-0.071399786
48	0xbd15314e	-0.036423974
49	0xbf00af3a	-0.50267375
50	0xbdad11ae	-0.08450638
51	0x3e04b88a	0.12961021
52	0x3d59ca73	0.053171586
53	0x3ee0a0b2	0.438726
54	0xbde81664	-0.11332396
55	0x3e5cde2e	0.2156913
56	0x3ee472f9	0.44618967
57	0xbeb1d1af	-0.34730288
58	0x3e9a6243	0.30153093
59	0xbeb2c93e	-0.3491916
60	0xbe370cae	-0.1787593
61	0xbec49ccd	-0.3840088
62	0x3ed7d2c8	0.42153
63	0xbec5a5d3	-0.38603076
64	0x3f01523f	0.5051612
65	0x3e4d8b81	0.20072748
66	0x3e3ee671	0.18642594
67	0x3e6e7231	0.23285748
68	0xbf0102a3	-0.5039465
69	0x3df24a8d	0.11830626
70	0x3e883811	0.26605275
71	0x3e885f5e	0.2663526
72	0x3eb5f0c5	0.35535255
73	0xbe031781	-0.12801935
74	0x3e69598e	0.22788069
75	0x3e9dafcb	0.30798182
76	0x3ed71745	0.4200994
77	0x3e3640be	0.17798135
78	0x3d241f01	0.04006863
79	0xbea89745	-0.3292791
80	0xbe084627	-0.13308011
81	0xbe154876	-0.14578423
82	0x3eb39157	0.35071823
83	0xbe23812e	-0.15967247
84	0x3e939414	0.28823912
85	0x3d94f1c6	0.07272677
86	0xbed85566	-0.42252654
87	0xbeebb830	-0.4603896
88	0x3df954e6	0.12174396
89	0x3e8e996d	0.2785143
90	0x3c051f56	0.008125147
91	0xbe8f574d	-0.27996293
92	0x3c23e4db	0.010003294
93	0x3ead1f6c	0.33813035
94	0x3e49d76a	0.1971108
95	0x3eb8ee85	0.36119476
96	0x3e4d5fb6	0.20056042
97	0x3eb8b4e5	0.36075512
98	0x3e02dd37	0.127797
99	0xbe2968ef	-0.16543935
100	0x3e441d5d	0.19151826
101	0xbcb8efc9	-0.022575276
102	0xbec81d80	-0.39085007
103	0xbdb7c44d	-0.08972988
104	0xbed25cec	-0.4108652
105	0x3c7830ca	0.015148351
106	0x3ed9f182	0.42567068
107	0x3edffcdb	0.437476
108	0x3caeb730	0.021327585
109	0xbe03746b	-0.12837379
110	0x3e98d51d	0.29850093
111	0x3da8a763	0.082350515
112	0xbed02d21	-0.4065943
113	0x3e817a9a	0.2528885
114	0xbd2cfeef	-0.04223531
115	0x3ebfe4d1	0.3747926
116	0x3e8b7a77	0.2724187
117	0x3c881e5f	0.016616045
118	0x3e71786b	0.23581092
119	0xbea11411	-0.31460622
120	0xbee50a2c	-0.44734323
121	0xbe65277c	-0.22378343
122	0xbe170e90	-0.14751649
123	0xbebedb96	-0.37276906
124	0x3ed75b19	0.4206169
125	0xbe6922cd	-0.22767182
126	0x3eadfe77	0.33983204
127	0xbee68843	-0.45025834
128	0xbf0e9bd5	-0.5570653
129	0x3e3e36d5	0.18575604
130	0x3df36a8d	0.11885557
131	0x3e97d9ce	0.2965836
132	0xbdb15527	-0.0865882
133	0x3e4debf5	0.20109542
134	0x3de170f0	0.11007869
135	0x3e3a1ae4	0.1817432
136	0x3ec73a6e	0.38911766
137	0x3eb63dc1	0.3559399
138	0x3d99bf09	0.0750714
139	0x3d0952e2	0.03352631
140	0xbedf2932	-0.43586117
141	0xbe64e30a	-0.22352234
142	0xbeb314d5	-0.3497683
143	0x3ca484bc	0.020082824
144	0xbe2fdf41	-0.17175008
145	0x3e33b5ba	0.17549792
146	0xbe606a55	-0.21915562
147	0x3e69349d	0.22773977
148	0xbe4b93be	-0.19880578
149	0xbe4303f0	-0.19044471
150	0x3c8e9ae7	0.017407848
151	0xbe9271e7	-0.28602526
152	0x3e6aec53	0.22941713
153	0x3eb09bfd	0.3449401
154	0x3e8691fe	0.26283258
155	0x3ea4ac8e	0.321629
156	0x3f03615c	0.51320434
157	0xbe898cbb	-0.2686518
158	0xbcbc4da6	-0.022986244
159	0xbf101621	-0.56283766
160	0x3e62ac84	0.22136122
161	0xbd82522c	-0.06363329
162	0xbea21393	-0.3165556
163	0x3dd2cbc1	0.10292769
164	0xbe9dbcc9	-0.30808094
165	0x3e179365	0.1480232
166	0x3eac4da8	0.33652997
167	0x3ea535a8	0.322675
168	0xbe46e44c	-0.19423026
169	0xbf0eab48	-0.55730104
170	0x3e0f5618	0.13997686
171	0xbe7876fc	-0.24264139
172	0xbe5123b3	-0.20423774
173	0x3eb9e5ec	0.3630823
174	0x3e0dc0a9	0.13843025
175	0xbee0b57f	-0.4388847
176	0x3e03ece5	0.12883337
177	0xbcabeb15	-0.02098612
178	0x3e9bbf40	0.3041935
179	0xbde1c518	-0.11023921
180	0x3ef3b67a	0.47600156
181	0x3ee8fbeb	0.45504698
182	0xbe46e433	-0.19422989
183	0x3e530740	0.20608234
184	0xbef0c63b	-0.47026238
185	0xbdfebee5	-0.12438754
186	0xbe820760	-0.25396252
187	0xbec2942c	-0.3800367
188	0xbea195a5	-0.31559482
189	0xbee12019	-0.439698
190	0x3ef32045	0.47485557
191	0x3b0c58b6	0.002141518
192	0x3e476aa7	0.19474278
193	0xbc73efdd	-0.014888731
194	0xbd561ced	-0.05227368
195	0xbe0cc087	-0.13745318
196	0x3e99f7e9	0.30071953
197	0xbee38b00	-0.44441986
198	0xbeda6dcb	-0.4266189
199	0x3eba4098	0.36377406
200	0xbde2cdc3	-0.11074402
201	0x3dac4515	0.08411614
202	0xbd2c0781	-0.041999344
203	0x3f0ddb0a	0.5541235
204	0xbe2a67a1	-0.16641094
205	0xbede2418	-0.43386912
206	0xbdfa6d79	-0.122279115
207	0x3b6e1e47	0.0036333965
208	0x3eaeb323	0.34121045
209	0xbed39f69	-0.41332558
210	0x3eca764c	0.39543378
211	0x3ee87a28	0.45405698
212	0xbed8aff3	-0.4232174
213	0x3e17a94d	0.14810677
214	0xbea7a6a5	-0.32744327
215	0xbdc57175	-0.09640781
216	0x3ee6a527	0.45047876
217	0x3ea999e9	0.33125237
218	0x3e83702b	0.25671515
219	0x3e93d6cd	0.28874817
220	0xbeb2bc9c	-0.34909523
221	0x3e0a9088	0.13531697
222	0x3d25c8dd	0.04047476
223	0x3c1c14e2	0.009526463
224	0xbe4df8e1	-0.20114471
225	0x3e9523f8	0.29129004
226	0x3e9451fd	0.28968802
227	0xbe8fa375	-0.28054395
228	0xbd999237	-0.074985914
229	0xbedb040f	-0.42776534
230	0xbe53be24	-0.20678002
231	0xbe8c91c5	-0.27454963
232	0x3d14796a	0.036248602
233	0xbeed4f02	-0.4634934
234	0x3e185a72	0.14878252
235	0x3e49f2e0	0.19721556
236	0x3e0eafa5	0.1393419
237	0x3e0c2f2f	0.13689874
238	0xbdb1bd25	-0.086786546
239	0x3eca79e7	0.3954613
240	0xbe9ce290	-0.30641603
241	0xbe4f44ef	-0.2024114
242	0xbbd4f73c	-0.006499199
243	0x3f07276b	0.5279452
244	0x3e42ba61	0.1901641
245	0x3b7981f6	0.0038071848
246	0xbd975d2f	-0.0739082
247	0xbc3bd5b3	-0.011464524
248	0x3dfb73b9	0.12277932
249	0x3ea3ec9b	0.32016453

fc1.bias f4 [50]
0	0x3df9abe8	0.12190992
1	0x3e8c2658	0.27373004
2	0xbf38bd73	-0.72164077
3	0xbd7405cf	-0.059575852
4	0x3e5409e2	0.20706895
5	0x3e0814e3	0.13289218
6	0xbee8f4a0	-0.45499134
7	0x3e00fb27	0.12595807
8	0x3e56aae8	0.20963633
9	0x3a799082	0.00095201295
10	0xbf1f920e	-0.62332237
11	0x3d82babc	0.06383273
12	0xbf2b787c	-0.6698072
13	0x3e86f17c	0.26356113
14	0xbf030c1c	-0.5119035
15	0xbe3c46f8	-0.18386447
16	0xbe9b68c8	-0.3035338
17	0x3e280fda	0.16412297
18	0x3f02d067	0.51099247
19	0x3f1d6c25	0.6149314
20	0xbe9453f5	-0.28970304
21	0x3f6ce90a	0.9254309
22	0xbee7f9ed	-0.45307866
23	0xbe77473d	-0.24148269
24	0xbe98f422	-0.2987376
25	0x3e4b1134	0.19830781
26	0x3ef20f36	0.4727723
27	0x3f0321bc	0.5122335
28	0x3db0bb6b	0.08629497
29	0xbd833da6	-0.06408243
30	0x3e8a4888	0.27008462
31	0x3ec2a0c0	0.38013268
32	0xbeb70342	-0.35744673
33	0xbdd4e40c	-0.10395059
34	0xbede166d	-0.43376485
35	0xbc412c58	-0.0117903575
36	0x3dc711b7	0.09720176
37	0x3edfff6f	0.43749568
38	0x3f9318b0	1.1491909
39	0x3cf10063	0.02941913
40	0xbef6996c	-0.48163927
41	0xbe9e188c	-0.30878103
42	0xbe9484cf	-0.29007575
43	0xbe73729b	-0.23774187
44	0xbeb339f3	-0.3500515
45	0xbe2e0285	-0.16993149
46	0xbc4fc4ed	-0.012681228
47	0x3c6c05a6	0.014405644
48	0xbf1ac145	-0.60451156
49	0xbd90e3f7	-0.07074731

fc2.weight f4 [50, 50]
0	0x3df269f4	0.11836615
1	0x3d7087ba	0.05872319
2	0xbd919597	-0.0710861
3	0x3dd6c3ec	0.10486588
4	0x3cdef582	0.027216677
5	0xbdc54bbd	-0.096335866
6	0x3d0e936c	0.03480856
7	0xbdfe3301	-0.12412072
8	0x3c40c999	0.011766815
9	0x3b8eac1f	0.0043540145
10	0xbe07e3cc	-0.13270491
11	0xbce4a328	-0.02790983
12	0xbddba232	-0.10724296
13	0x3db7613f	0.08954095
14	0x3d5b4553	0.05353291
15	0x3d52faf3	0.051508855
16	0xbdb71b2f	-0.08940732
17	0xbd2651e4	-0.04060544
18	0x3cbdda5a	0.023175407
19	0xbd080678	-0.033209294
20	0x3e178c13	0.14799528
21	0x3dbc862a	0.09205277
22	0x3dc476e9	0.09592993
23	0x3dccaf5d	0.099943854
24	0xbdd75e79	-0.10516066
25	0x3ca934b7	0.02065502
26	0x3dc9f11d	0.09860442
27	0xbdf7c69b	-0.12098428
28	0x3cacd9c0	0.021099925
29	0xbd2fd819	-0.042930696
30	0x3c832167	0.016007138
31	0xbd9d1772	-0.076704875
32	0x3c577ee5	0.013152813
33	0x3c991f8b	0.018691799
34	0xbd6023dc	-0.0547217
35	0x3db95252	0.090489045
36	0xbd97849a	-0.073983386
37	0x3d8f4902	0.06996347
38	0xbdb4d76b	-0.0883015
39	0x3926dc06	0.00015912959
40	0xbc34843a	-0.011017853
41	0xbd64122a	-0.055681385
42	0x3b5c010c	0.003356996
43	0xbdfd1d1f	-0.1235907
44	0xbb31afa1	-0.002711274
45	0x3dd25e92	0.10271944
46	0x3dbee3e9	0.09320814
47	0xbe000740	-0.12502766
48	0xbcadddd9	-0.02122395
49	0xbcb18b00	-0.021672726
50	0x3d1bd6a5	0.038046498
51	0x3daa9a7c	0.08330247
52	0xbcea52d7	-0.028603954
53	0x3dc62f76	0.09677021
54	0xbdc38dd3	-0.09548535
55	0x3ddaf96f	0.10692107
56	0x3d6ade29	0.057340775
57	0xbdcef3b1	-0.10105074
58	0xbe20466e	-0.15651867
59	0x3e42dd9a	0.19029847
60	0x3c398f0e	0.011325611
61	0xbd67b555	-0.056569416
62	0xbce62645	-0.02809442
63	0xbe0baf87	-0.13641177
64	0x3d1f70f0	0.038926065
65	0x3dbd71b0	0.092502
66	0xbd735524	-0.05940737
67	0xbc90cacd	-0.017674828
68	0x3d15da0a	0.03658489
69	0xbd70c4c1	-0.05878139
70	0x3d769026	0.060196064
71	0xbd24c85b	-0.040230136
72	0x3ddae122	0.10687472
73	0x3deab348	0.114599764
74	0xbd230793	-0.039802145
75	0x3d9a1272	0.075230494
76	0xbda7bec1	-0.0819068
77	0x3dc8d56e	0.098063335
78	0xbd1c2aee	-0.03812688
79	0x3d61e353	0.055148434
80	0x3a6915e2	0.00088915054
81	0x3e47e3a8	0.19520438
82	0x3dae2cec	0.08504662
83	0x3e403572	0.18770388
84	0x3afed683	0.0019442592
85	0x3da69f1f	0.08135819
86	0x3dae6efc	0.08517262
87	0x3df19df1	0.11797703
88	0xbd78a5fd	-0.060705174
89	0x3d0db0cd	0.03459244
90	0x3d674a61	0.056467418
91	0x3b09dda2	0.0021036644
92	0x3c6e9923	0.014562878
93	0xbc1cca49	-0.009569713
94	0x3c62668b	0.013818393
95	0xbda1756c	-0.078837246
96	0xbd8e0fab	-0.06936582
97	0x3a8186e0	0.0009882115
98	0x3d22a49f	0.039707776
99	0xbe2f8400	-0.17140198
100	0x3daa6c5a	0.08321448
101	0x3dbbe64a	0.091747835
102	0x3d8059bd	0.06267116
103	0xbc8e38b3	-0.01736102
104	0xbdc50326	-0.09619741
105	0xbdb0dc37	-0.08635753
106	0xbdc13207	-0.0943337
107	0x3d963b50	0.07335532
108	0x3ca74220	0.020417273
109	0xbda7e8dc	-0.08198711
110	0x3e0726a5	0.13198335
111	0xbe09f42d	-0.13472052
112	0x3e3f912e	0.18707725
113	0x3cba928b	0.022774955
114	0xbd0cf67f	-0.034414764
115	0x3d316997	0.04331359
116	0xbddfb246	-0.10922675
117	0x3dabb9bd	0.08385036
118	0xbe097d10	-0.13426614
119	0xbe157c46	-0.14598188
120	0xbe17c699	-0.14821853
121	0xbd713575	-0.05888887
122	0x3d3666c3	0.044531595
123	0x3d0ac0e4	0.03387536
124	0x3e53bc2e	0.20677254
125	0x3e2a1c2a	0.16612306
126	0xbdf38a3f	-0.11891603
127	0xbdbe5f89	-0.09295566
128	0x3db3f556	0.087870285
129	0x3e03d2a2	0.12873319
130	0x3db823a2	0.089911714
131	0x3dbcae88	0.09212977
132	0x3dade067	0.08490067
133	0xbd8135c3	-0.06309082
134	0x3d2b9d7d	0.04189824
135	0x3cfbf36f	0.030755727
136	0xbd5be442	-0.05368448
137	0x3de0c392	0.10974802
138	0x3d61872b	0.055060547
139	0x3d435547	0.04768875
140	0xbdeddee9	-0.11614782
141	0xbd85729e	-0.06516002
142	0x3bf2c550	0.0074087754
143	0xbd5efda7	-0.05444112
144	0xbde29e74	-0.11065379
145	0x3d7ce69b	0.06174336
146	0x3d98ac17	0.074546985
147	0x3ddfc59d	0.109263636
148	0xbdedd157	-0.11612194
149	0xbd5d4e66	-0.054029845
150	0xbde5798c	-0.11204824
151	0xbdb7f0a9	-0.08981449
152	0xbac06f69	-0.001468164
153	0x3e2645ea	0.16237608
154	0xbd42c918	-0.04755506
155	0xbdab01e9	-0.08349974
156	0xbde30ead	-0.110867836
157	0x3ce287b8	0.027652606
158	0x3dc5b8e5	0.096544065
159	0xbd478b3d	-0.048716772
160	0x3d08dc20	0.033413053
161	0x3e05ad0f	0.13054298
162	0xbdabfdf3	-0.08398046
163	0xbceafaa7	-0.028683973
164	0x3d465719	0.048422907
165	0xbd7e2cbf	-0.062054392
166	0x3d8889bd	0.066668965
167	0x3d89aa8a	0.06721981
168	0x3d9edee0	0.07757354
169	0xbdc5ccbb	-0.0965819
170	0x3d27e335	0.040988166
171	0xbe217c5a	-0.15770093
172	0x3d7f0227	0.062257912
173	0x3d887224	0.066623956
174	0x3daf3a59	0.08556051
175	0x3d4631ee	0.04838746
176	0xbb3d6b18	-0.0028902944
177	0xbe00c375	-0.12574561
178	0xbd3fcfa7	-0.046828892
179	0x3d103ee8	0.035216242
180	0xbb243686	-0.0025056913
181	0xbd79f85b	-0.061027866
182	0xbdb816eb	-0.08988746
183	0x3e06b3ad	0.13154478
184	0x3dd0a121	0.10186983
185	0x3b892013	0.0041847317
186	0x3c80711d	0.015678937
187	0xbd323a60	-0.043512702
188	0xbe2d04cd	-0.16896363
189	0x3e077a0f	0.13230155
190	0x3da89268	0.0823105
191	0x3deb2e39	0.11483426
192	0x3d0187df	0.031623717
193	0x3dda90e8	0.1067217
194	0xbdff42db	-0.124639235
195	0xbd4a0d75	-0.04932924
196	0xbd4b757e	-0.049672596
197	0x3df7892a	0.12086709
198	0xbdc9e193	-0.09857478
199	0xbd3a115d	-0.045426715
200	0xbe018176	-0.12647042
201	0xbd0b534d	-0.03401499
202	0xbe156692	-0.14589909
203	0x3d9344cd	0.07190857
204	0x3cfdb5d0	0.030970484
205	0xbd69e2e8	-0.05710116
206	0xbe1bdfe0	-0.1522212
207	0x3d7ac84a	0.061226167
208	0xbdb40dbf	-0.08791684
209	0xbdc9ff43	-0.098631404
210	0xbda54117	-0.080690555
211	0xbc93bab0	-0.018033355
212	0x3d805983	0.06267073
213	0xbd92c469	-0.071663685
214	0xbb12916f	-0.0022364517
215	0xbc963702	-0.018336777
216	0x3d9c054a	0.07618196
217	0xbda665ca	-0.081248835
218	0x3db32d69	0.08748896
219	0xbdec3f63	-0.115355276
220	0x3e1b3463	0.15156703
221	0x3c89c17e	0.016815897
222	0x3cc3cb6c	0.02390071
223	0xbd247fed	-0.040161062
224	0xbd8028ec	-0.06257805
225	0x3deb54f5	0.11490814
226	0x3c27615c	0.010216083
227	0xbcc66fb9	-0.024223195
228	0x3db95936	0.09050219
229	0xbdce5dd3	-0.10076489
230	0xbcff6fd0	-0.031181246
231	0x3e2152bf	0.15754221
232	0x3d561b4e	0.052272134
233	0x3d9c52bb	0.07632967
234	0x3dcd3a77	0.10020917
235	0xbd36e565	-0.04465236
236	0x3cee0ab4	0.029057838
237	0x3e20109c	0.15631336
238	0xbde1a8e5	-0.11018542
239	0xbcaa8186	-0.020813715
240	0xbde18770	-0.11012161
241	0xbd34cc63	-0.04414023
242	0xbcbbcb75	-0.022924164
243	0xbd04f65c	-0.03246151
244	0x3de0822b	0.109623276
245	0x3d9f6f42	0.077848926
246	0xbe1d5294	-0.15363532
247	0xbda6d7c4	-0.08146623
248	0x3d5fcc87	0.05463841
249	0x3de0371f	0.109480135
250	0xbd0ce766	-0.034400366
251	0xbdb14a2c	-0.08656725
252	0x3d63326c	0.055468008
253	0xbd88a8e2	-0.06672837
254	0x3df87465	0.121315755
255	0xbcda067c	-0.02661442

fc2.bias f4 [50]
0	0x3c0dabfb	0.00864696
1	0x3e0313be	0.128005
2	0x3d807b25	0.06273488
3	0xbd1f75c2	-0.038930662
4	0x3da5fc8d	0.08104811
5	0x3b9d00d7	0.00479136
6	0x3dec2a8b	0.11531552
7	0x3f0d9acf	0.55314344
8	0xbe63558a	-0.222006
9	0x3efb9d17	0.49143288
10	0x3d0659f3	0.032800626
11	0x3ce4130c	0.027841114
12	0xbe4654cd	-0.19368286
13	0x3e1556ce	0.14583895
14	0x3dc4349e	0.095803484
15	0x3f273106	0.6530918
16	0x3d8c6d2f	0.068567626
17	0x3da1db3e	0.07903145
18	0x3f0bcddb	0.54610986
19	0xbdd127ed	-0.10212693
20	0xbe6c2b02	-0.23063281
21	0xbe1d2c73	-0.15348987
22	0x3ecbca97	0.39803
23	0xbe5c17ec	-0.214935
24	0x3dc13184	0.094332725
25	0x3e042f41	0.12908651
26	0xbe4bbd39	-0.19896401
27	0xbb808775	-0.0039223977
28	0x3def0644	0.11671117
29	0x3e9bfd0d	0.304665
30	0xbe1feaa2	-0.15616849
31	0x3c3a97b0	0.011388704
32	0xbdb1588c	-0.08659467
33	0xbdb55238	-0.088535726
34	0xbeb3bb82	-0.35103995
35	0x3c095655	0.0083824
36	0x3ddb43e0	0.107063055
37	0x3dd778f6	0.10521118
38	0xbe124e99	-0.14287795
39	0xbcad42ce	-0.021150019
40	0x3e910040	0.28320503
41	0x3df1f6b1	0.11814631
42	0xbe08ce77	-0.1336001
43	0xbc36aa63	-0.011149022
44	0x3e442db8	0.19158065
45	0x3ec4890c	0.38385808
46	0xbd69bea4	-0.057066575
47	0x3e4251ac	0.18976468
48	0xbda7ada7	-0.081874184
49	0xbd990180	-0.07470989

fc3.weight f4 [1, 50]
0	0xbe1e8617	-0.15480839
1	0xbe7adc6d	-0.24498148
2	0x3e85ee7a	0.26158506
3	0x3e34473c	0.17605299
4	0xbe27ed2c	-0.16399068
5	0xbde5b2e4	-0.11215761
6	0x3deb2f9c	0.1148369
7	0xbf758abb	-0.9591481
8	0x3f07348e	0.5281457
9	0xbf5838ac	-0.84461474
10	0x3d722c11	0.059124056
11	0xbe5cabf1	-0.21549965
12	0x3ebd7060	0.36999798
13	0xbe2aa5ca	-0.16664806
14	0xbe29f33e	-0.16596696
15	0xbf8d9393	-1.1060661
16	0xbc2a8700	-0.010408163
17	0x3d958d43	0.07302334
18	0xbf637695	-0.88852817
19	0xbba74b53	-0.005105415
20	0x3ef5a858	0.4798
21	0x3f1fbc14	0.6239636
22	0xbf1c0f48	-0.6096082
23	0x3f1e42b3	0.61820525
24	0xbde4692e	-0.11152874
25	0xbe863c54	-0.26217902
26	0x3eb15ec3	0.3464261
27	0xbd73d460	-0.05952871
28	0xbe73f79f	-0.23824929
29	0xbed8fc5b	-0.42380032
30	0x3f0b454a	0.544026
31	0xbd1c9ca0	-0.038235307
32	0x3eb37305	0.3504869
33	0xbe35b10d	-0.17743321
34	0x3f2729fb	0.6529843
35	0xbe02872b	-0.12746875
36	0x3d71e088	0.05905202
37	0xbe8c3016	-0.27380437
38	0x3e8a9237	0.27064678
39	0xbe6ea701	-0.23305894
40	0xbeb80a46	-0.35945338
41	0xbe09a2ad	-0.13440962
42	0x3e14b25a	0.1452116
43	0xbd2cc343	-0.042178404
44	0xbe5f3960	-0.2179923
45	0xbf0812e3	-0.5315382
46	0xbe4a9244	-0.19782358
47	0xbe9a3958	-0.30121875
48	0xbe576688	-0.21035206
49	0xbd449a3e	-0.04799866
