rl_agent/critic.pkl (torch_old, 12629 bytes, 5 tensors)

fc1.weight f4 [50, 5]
000000 e1 41 d7 be 30 8e 47 3e 40 80 b6 3e 7e ea b3 bc
       -0.4204245 0.19487834 0.35644722 -0.0219624
000010 e4 24 0e be eb 13 28 be ab b5 4a 3e de 77 de 3e
       -0.1388126 -0.16413848 0.19795863 0.43450826
000020 1f 67 66 be 1d 37 84 bd f2 7c 46 be d0 21 8e 3e
       -0.22500275 -0.064558245 -0.193836 0.27760172
000030 d8 41 17 be ff 23 61 3e 19 1b 9d 3e fd 16 29 3e
       -0.14771211 0.21986388 0.30684736 0.16512676
000040 9d 56 da 3e 82 73 b9 be 62 70 df be d6 c6 32 3e
       0.42644206 -0.36220938 -0.4364043 0.17458662
000050 43 83 c7 bc a7 11 db bd 57 da 54 3e 52 d5 69 bd
       -0.024354583 -0.10696726 0.20786415 -0.057088204
000060 0d 8a ee bd f1 f4 8e bd de 73 2f be 5b 19 40 3e
       -0.11647425 -0.069803126 -0.17134044 0.18759672
000070 23 0f 8e 3d 7a a2 15 3e c9 27 fd bd 4b e1 ae 3e
       0.06936481 0.14612761 -0.12361104 0.3415626
000080 ce e4 ee 3d 68 b2 6a bd 51 57 ec 3d 50 c5 a0 be
       0.11664735 -0.057299048 0.11540092 -0.31400537
000090 a5 a7 0e be 3b 85 d4 3c 62 c3 17 be af b6 82 3e
       -0.13931139 0.025942435 -0.14820626 0.25530002
0000a0 db f7 bf 3e 19 fd d9 3e f4 de 71 be f0 82 80 be
       0.37493786 0.4257591 -0.23620206 -0.25099897
0000b0 52 ac d0 3e c6 49 e0 3e 47 2e 87 3e a8 b5 c2 bd
       0.4075647 0.43806285 0.26402494 -0.095073044
0000c0 38 9c 30 bd 5a 97 02 bf 5f b3 ec bd 30 4c ca 3d
       -0.04311773 -0.51012194 -0.1155765 0.09877813
0000d0 b0 38 b2 3c a2 6c 94 3e c2 80 1f bd cc 4a 5f 3e
       0.021755546 0.2898913 -0.038941152 0.21805876
0000e0 94 aa e5 3e 41 97 b0 be be f8 a8 3e ac e0 a5 be
       0.44856703 -0.34490398 0.33002275 -0.32397974
0000f0 9b b7 3b be 19 a1 c6 be 5a 26 d5 3e a1 dc b7 be
       -0.18331759 -0.38794783 0.41630822 -0.35910514
000100 05 57 ed 3e 77 9c 55 3e e8 17 47 3e 13 68 76 3e
       0.46355453 0.20860468 0.19442713 0.24063139
000110 92 28 f3 be b9 cb 50 3d 03 aa 87 3e d1 f9 87 3e
       -0.4749189 0.050975535 0.26496896 0.26557782
000120 fd 2c b5 3e 08 b8 c6 bd de 65 73 3e 7c d0 96 3e
       0.35385886 -0.0970307 0.23769328 0.29455936
000130 0e 30 d0 3e f1 a4 28 3e f2 94 9d 3d 3f 4f ab be
       0.40661663 0.1646917 0.07694425 -0.33458897
000140 0c 42 07 be 67 fe 13 be 3f e9 b3 3e 7e a1 eb bd
       -0.13208789 -0.14452516 0.3513889 -0.115054116
000150 64 71 a0 3e 92 a2 9d 3d 42 24 d6 be a0 88 e9 be
       0.3133651 0.076970235 -0.41824538 -0.4561205
000160 1e b8 0e 3e 2f af 9d 3e 02 ab f2 3c 9e 65 84 be
       0.13937423 0.30797717 0.029622559 -0.25858778
000170 d1 31 02 3d 2d 3f c5 3e 73 64 67 3e 5f 2f b5 3e
       0.03178579 0.38524762 0.22596912 0.35387704
000180 c8 6e 45 3e a2 0e b5 3e db 66 a9 3e cb 56 87 be
       0.19280541 0.35362726 0.33086285 -0.26433405
000190 f0 60 42 3e 4a b9 c6 bc f7 ef c8 be 0f 7b ee bd
       0.18982291 -0.024258275 -0.3924558 -0.11644565
0001a0 2d 5f d4 be 75 2f 80 3c 5b c6 d9 3e 22 ac e0 3e
       -0.41478863 0.01564763 0.42534146 0.43881327
0001b0 65 a3 35 3e b5 0f 8d bd 40 31 8e 3e 51 b9 7c 3d
       0.17738111 -0.068877615 0.2777195 0.06170017
0001c0 12 ed da be 14 ef 20 3e 96 32 03 bb 21 0a c1 3e
       -0.42758995 0.15716201 -0.0020019165 0.3770304
0001d0 26 9f 8c 3e 2d 81 9a 3c 22 3b 84 3e 8c 3a 97 be
       0.2746517 0.018860424 0.25826365 -0.29536855
0001e0 90 06 e1 be aa b9 5c be 99 87 0f be 53 7b a4 be
       -0.4395032 -0.215552 -0.1401657 -0.3212534
0001f0 dd 2f e3 3e d4 2e 5d be 4b 1b b4 3e 2d ac e0 be
       0.44372454 -0.21599895 0.35177073 -0.4388136
000200 89 ad f2 be 40 63 dc 3c 31 20 0c 3e dd e8 a0 3e
       -0.47398022 0.026902795 0.13684155 0.3142766
000210 8b 27 8c bd 37 c7 8b 3e 07 2a 01 3e 23 4a 41 3e
       -0.0684348 0.27300426 0.12613688 0.18875937
000220 d3 90 ca 3e 40 06 ba 3e 93 5f 87 3e 3c 06 92 3d
       0.39563617 0.36332893 0.26440105 0.07130095
000230 77 1b df be 62 c5 64 be 20 06 b3 be 2a 36 66 3d
       -0.43575642 -0.2234092 -0.3496561 0.056204
000240 34 af 21 be 8a 16 31 3e 77 11 63 be 4e a9 66 3e
       -0.15789491 0.17293754 -0.22174631 0.22525522
000250 23 a0 76 be c9 5c 40 be fc 10 f9 3c d5 d3 8b be
       -0.24084525 -0.18785395 0.030403607 -0.27310053
000260 8c 5c 78 3e a8 cf c3 3e d1 0b 9c 3e f6 9f 94 3e
       0.24254054 0.38244367 0.30477765 0.2902829
000270 84 a6 f6 3e da 6d 99 be ce 0d 62 bd 22 62 11 bf
       0.48173916 -0.29966623 -0.055188946 -0.56790364
000280 17 98 62 3e 86 81 82 bd d8 1e a2 be 71 04 5b 3d
       0.2212833 -0.06372361 -0.31664157 0.053471033
000290 bc 2a a7 be d3 90 fd 3d 6b d1 9f 3e cc ee 98 3e
       -0.3264979 0.12381139 0.3121446 0.29869688
0002a0 86 a5 83 be ef bd 0e bf dd b0 02 3e e9 7f 82 be
       -0.25712222 -0.55758566 0.1276278 -0.25488213
0002b0 1c 07 5e be 25 a4 9e 3e f5 d9 7e 3e a1 f6 e4 be
       -0.216824 0.30984607 0.24887832 -0.44719413
0002c0 1c 04 f7 3d 88 ea f0 bc 7a f2 80 3e 37 a5 8b bd
       0.12061331 -0.029408708 0.25184995 -0.068186216
0002d0 c1 0f f0 3e c7 53 e5 3e 77 2c 4e be db 87 8a 3e
       0.4688702 0.4479048 -0.2013415 0.27056774
0002e0 97 df e1 be 69 66 08 be 27 94 86 be cf 05 c7 be
       -0.44115898 -0.13320316 -0.26284906 -0.3887162
0002f0 f2 88 c6 be 58 d1 e2 be 40 51 fc 3e df 01 9d 3c
       -0.38776356 -0.44300342 0.4928074 0.019165931
000300 2e d6 5a 3e 4d bb aa bb 50 08 25 bd f0 03 05 be
       0.21370766 -0.0052103163 -0.04029113 -0.12989783
000310 e8 e6 9d 3e c2 bb df be 49 b1 c9 be f6 7c b3 3e
       0.3084023 -0.43697935 -0.3939307 0.35056275
000320 75 51 0e be 59 c7 65 3d 50 79 90 bd 2b 68 d6 3e
       -0.13898261 0.056098316 -0.070543885 0.4187635
000330 a8 3e c2 bd 09 2d de be 52 92 fa bd 4d 8b 69 3b
       -0.09484607 -0.43393734 -0.1223494 0.0035636008
000340 96 bf ae 3e 70 77 d3 be 55 ad c9 3e 74 ab e7 3e
       0.34130543 -0.4130206 0.39390054 0.45247996
000350 62 7e d9 be c2 5f d1 3d cc 23 af be c1 42 d0 bd
       -0.42479235 0.102233425 -0.34206998 -0.10168982
000360 3e f3 e3 3e cf d9 a6 3e 10 89 8d 3e 82 ec ac 3e
       0.44521517 0.3258805 0.27643633 0.3377419
000370 f5 cd b2 be b0 6d 0a 3e e1 3d 25 3d d3 4f 48 3a
       -0.34922758 0.13518405 0.040342215 0.0007641289
000380 67 92 52 be b6 d1 91 3e 9b ff 90 3e 39 e3 92 be
       -0.2056366 0.2848031 0.28320011 -0.28688982
000390 8e 1f d3 bd 7c 7d dd be f3 13 4c be d4 a1 88 be
       -0.10308753 -0.432598 -0.19929485 -0.26685965
0003a0 a9 af 32 3d 73 cd d4 be 02 80 f5 3c ff 3b 4e 3e
       0.043624554 -0.41562995 0.029968265 0.20140074
0003b0 3c 0e 13 3e d3 4e 10 3e 65 9c a1 bd 2e 7b d4 3e
       0.14360899 0.14092569 -0.07891158 0.4150023
0003c0 f8 83 a6 be a7 56 62 be 96 71 d2 bc f7 7a dc 3e
       -0.3252256 -0.22103368 -0.025688928 0.43062565
0003d0 62 a9 bb 3e ab dc 25 3b 8d e7 99 bd b2 c9 51 bc
       0.36652666 0.002530853 -0.07514868 -0.012804436
0003e0 9c 90 16 3e 17 92 b6 3e
       0.14703602 0.35658333

fc1.bias f4 [50]
000000 e2 99 d5 3d f5 69 8e 3e 4a e5 f4 be a4 96 f5 bc
       0.104297414 0.27815214 -0.47831184 -0.029979058
000010 ce 2e 54 3e 87 65 be 3d 63 df 9f be c2 21 0d 3e
       0.2072098 0.092967086 -0.31225118 0.13782409
000020 e7 5f 3e 3e 12 ba 3b bd a2 53 cf be a8 dd 7a 3d
       0.18591271 -0.045831747 -0.40493494 0.061246544
000030 e3 74 c2 be bd e1 8e 3e 42 01 b4 be bc 19 57 be
       -0.37979802 0.279066 -0.3515721 -0.2100591
000040 3c 89 27 be 5a e5 3c 3e 2f f1 cd 3e ce af c0 3e
       -0.16360945 0.18446866 0.4022307 0.37634128
000050 c1 fe 95 be 80 b5 00 3f 8b 60 a3 be 3c 50 75 be
       -0.29295924 0.5027695 -0.31909594 -0.23956388
000060 27 b3 c7 bd c0 a4 62 3e ba 8e a6 3e 2a a5 83 3e
       -0.097509675 0.2213316 0.32530767 0.25711948
000070 12 32 b1 3d 15 87 8d bd 26 eb 63 3e 35 3e a3 3e
       0.08652128 -0.069105305 0.22257671 0.31883398
000080 31 19 b7 be e5 02 1b be ca 6e 8e be be bd 9e 3d
       -0.35761407 -0.15137823 -0.278189 0.07751034
000090 83 16 a9 3d 88 26 d7 3e bf c2 28 3f ee 8d 94 3d
       0.08256247 0.42021585 0.6592216 0.072536334
0000a0 0e 73 8d be 1b 2c 9e be 2e 17 96 be 88 6b 4f be
       -0.27626842 -0.30893025 -0.2931456 -0.20255864
0000b0 b3 5b b3 be 9b f2 3a be 76 3f 0e 3b 64 85 6f 3d
       -0.35030898 -0.18256609 0.0021705306 0.05847682
0000c0 2e 11 b1 be 35 bd 13 bd
       -0.3458342 -0.036069114

fc2.weight f4 [50, 50]
000000 34 f4 f0 3d 41 3c 68 3d 97 95 91 bd 98 de dc 3d
       0.11765328 0.056698088 -0.0710861 0.10784644
000010 68 ee d3 3c b3 a8 c5 bd d6 56 15 3d 3c f9 f9 bd
       0.025870517 -0.096513174 0.036459766 -0.12205741
000020 b4 0d 30 3c 15 e0 87 3b cc e3 07 be 4f b7 e4 bc
       0.010745455 0.0041465857 -0.13270491 -0.02791944
000030 a0 94 cd bd 0d 52 b6 3d d7 b4 5b 3d 53 49 52 3d
       -0.100381136 0.08902369 0.05363926 0.05133946
000040 c1 18 b3 bd e4 51 26 bd 61 c7 bd 3c 2a af 16 bd
       -0.08744956 -0.04060544 0.02316636 -0.036788143
000050 c4 04 1b 3e 82 2c a7 3d e9 76 c4 3d ad ab cc 3d
       0.15138537 0.08162786 0.09592993 0.09993682
000060 1d 16 c9 bd 6e bb c0 3c cc 95 c8 3d ff a6 ff bd
       -0.09818671 0.023526873 0.097941965 -0.12483024
000070 64 5d b1 3c d4 63 25 bd f2 1e 83 3c c8 7d a1 bd
       0.021650977 -0.040378407 0.016005967 -0.07885319
000080 7e 7f 76 3c 36 a6 a9 3c dc 23 60 bd d4 51 b9 3d
       0.015045045 0.020709138 -0.0547217 0.090488106
000090 59 90 98 bd 44 36 98 3d 47 19 c6 bd 2b c7 8e 3b
       -0.07449407 0.07432225 -0.0967279 0.0043572388
0000a0 3d 85 34 bc db 14 64 bd 62 18 6b 3b f8 1e fd bd
       -0.011018095 -0.05568395 0.0035872688 -0.123594224
0000b0 20 ce 95 b8 fe 86 d5 3d 24 db c8 3d a8 f7 fd bd
       -7.1432674e-05 0.10426138 0.09807423 -0.12400752
0000c0 d9 dd ad bc 31 a3 b1 bc fb d6 17 3d cb 73 a3 3d
       -0.02122395 -0.021684261 0.037070256 0.0798107
0000d0 ea e6 de bc 83 a8 cb 3d f2 b1 c7 bd c8 25 dc 3d
       -0.027209718 0.099442504 -0.09750737 0.10749394
0000e0 d8 3d 73 3d 80 31 ca bd 33 5b 22 be 00 6b 42 3e
       0.05938515 -0.098727226 -0.15855102 0.1898613
0000f0 10 8f 4c 3c 83 53 66 bd c5 63 a3 bc 16 e8 0d be
       0.012485281 -0.056231987 -0.019945035 -0.13858065
000100 c2 04 1f 3d 5c 94 bc 3d f5 80 6a bd ed 23 89 bc
       0.038822897 0.09207985 -0.05725189 -0.016740764
000110 da 5c 1d 3d b1 b6 7f bd 88 3d 86 3d 79 ae 5c bd
       0.03841863 -0.062430087 0.06554705 -0.053877328
000120 f9 38 dc 3d 7d 2c eb 3d 36 80 00 bd 39 08 9f 3d
       0.10753054 0.11483095 -0.03137227 0.0776524
000130 31 7f a5 bd e9 be c2 3d 12 92 18 bd 36 63 6e 3d
       -0.080809005 0.095090695 -0.03724868 0.058200084
000140 e1 a6 41 3b f1 b1 44 3e 29 6d b4 3d 5f d8 42 3e
       0.002954893 0.19208504 0.08809883 0.19027852
000150 cd 05 62 3b 04 09 a8 3d 52 64 ac 3d 40 87 fc 3d
       0.003448832 0.082048446 0.08417572 0.123304844
000160 87 d9 92 bd 42 2a 20 3d 39 12 6d 3d 6b 07 09 3b
       -0.07170396 0.0391028 0.057878707 0.0020908962
000170 f0 fa 73 3c cb 00 fa bb 1e 0b 94 3c bd ae 9c bd
       0.014891371 -0.007629489 0.018071707 -0.07650516
000180 c3 e5 82 bd e9 22 5e 3b 36 69 2b 3d 4f 35 2e be
       -0.0639148 0.003389532 0.041848384 -0.17012523
000190 bc 6d ad 3d af 7e b6 3d af cd 8e 3d 61 7b 1e bd
       0.08468196 0.08910882 0.06972825 -0.038691882
0001a0 5e 05 bf bd 52 78 ae bd 9a 5a cb bd be df 7f 3d
       -0.093271956 -0.08519043 -0.0992939 0.062469237
0001b0 c5 99 13 3c 43 8e a5 bd 16 55 07 3e ee f3 09 be
       0.0090088295 -0.08083775 0.13216051 -0.13471958
0001c0 84 42 25 3e 79 74 eb 3b 50 8f 24 bd 4e 51 34 3d
       0.16138655 0.0071855155 -0.040175736 0.04402285
0001d0 15 44 f4 bd 83 39 b2 3d 24 1c ff bd 1d 9d 0c be
       -0.11927048 0.08702376 -0.12456539 -0.13731809
0001e0 69 59 1c be 2c b5 2e bd d6 8b 36 3d 91 c1 0a 3d
       -0.15268482 -0.042653248 0.04456695 0.033876006
0001f0 80 55 3a 3e c2 80 17 3e 5d 0e e5 bd 0e 92 ad bd
       0.18196678 0.14795211 -0.1118438 -0.08475123
000200 5b 43 b2 3d 71 02 01 3e 05 c6 cc 3d ed cb c5 3d
       0.08704253 0.12598588 0.09998707 0.096580364
000210 92 3e a8 3d 8c c4 82 bd 70 95 4a 3d 85 2e fd 3c
       0.08215059 -0.063851446 0.04945892 0.030905971
000220 ec 7e 58 bd 4c bd d8 3d 27 dc 85 3d 23 63 ca 3c
       -0.052855417 0.105829805 0.06536131 0.024705475
000230 71 99 ed bd 9c 72 85 bd 01 10 e9 3b 8b 59 41 bd
       -0.11601532 -0.06516001 0.0071125035 -0.047204535
000240 a7 7a ea bd a6 12 77 3d 45 eb 6b 3d 40 95 cf 3d
       -0.11449175 0.06032052 0.057597417 0.10135889
000250 d7 9e d7 bd 39 78 52 bd 53 38 e5 bd b6 31 c5 bd
       -0.10528343 -0.051384185 -0.111923836 -0.09628622
000260 bb 27 a1 bc 5a 53 12 3e 77 f2 41 bd ef 35 a6 bd
       -0.019672265 0.14289609 -0.047350373 -0.08115756
000270 0b 68 fc bd 54 36 00 3d fa 90 c7 3d a1 be 4b bd
       -0.12324532 0.03130181 0.09744449 -0.049742345
000280 19 d4 1a 3c 8c ef 04 3e f9 bd ce bd b0 9c 3f bd
       0.009449982 0.12982005 -0.10094828 -0.04678029
000290 ee d1 04 3d d9 33 7f bd 6a c5 71 3d d2 8b 9a 3d
       0.032426767 -0.062305305 0.05902616 0.075462
0002a0 9b 37 b3 3d 86 ab bb bd 2a 94 18 3d f9 6c 11 be
       0.0875084 -0.09163575 0.037250675 -0.14201726
0002b0 8e e4 3d 3d f4 af 87 3d fc ab a2 3d 77 d7 f7 3c
       0.046360545 0.06625357 0.0794296 0.030254109
0002c0 f9 99 5c 3b 0e 51 fb bd 2e 0a 42 bd a4 27 fd 3c
       0.003366111 -0.12271319 -0.04737299 0.030902691
0002d0 66 2b 78 3a da 33 79 bd 96 ad bb bd 97 9a 02 3e
       0.0009466916 -0.060840465 -0.09163968 0.12754284
0002e0 5f 11 b7 3d 01 14 ad b9 7b ed 82 3c 1a 5e 4d bd
       0.0893886 -0.00033012035 0.01598238 -0.05013857
0002f0 fe df 18 be 31 53 04 3e 21 06 73 3d 16 2d eb 3d
       -0.14929196 0.1292236 0.059332017 0.11483209
000300 6b a4 00 3d db ce c1 3d ab 2c 02 be 7b b6 53 bd
       0.0314068 0.09463283 -0.12712352 -0.0516877
000310 88 ee 84 bd d8 85 f0 3d e1 60 ea bd fb e2 43 bd
       -0.06490809 0.11744279 -0.114442594 -0.047823887
000320 43 88 01 be a9 98 06 bd 92 66 15 be d8 ad 9f 3d
       -0.12649636 -0.03286043 -0.14589909 0.0779683
000330 94 a9 fc 3c e8 e2 69 bd 8f 8d 1a be 84 d1 82 3d
       0.03084258 -0.05710116 -0.15093063 0.06387618
000340 98 b2 af bd 9b 60 c8 bd 17 41 a5 bd bf cf 93 bc
       -0.08578986 -0.09784051 -0.080690555 -0.018043397
000350 17 ca 8d 3d b2 ac 89 bd c1 e0 b3 ba fe 90 96 bc
       0.06923311 -0.06722392 -0.0013723598 -0.018379685
000360 8c 48 a0 3d ca 65 a6 bd 0f 2d b3 3d f7 0a ee bd
       0.07826337 -0.081248835 0.087488286 -0.11623185
000370 20 e4 1e 3e 75 24 3c 3c 6c cb c3 3c e0 87 24 bd
       0.1551671 0.011483301 0.02390071 -0.040168643
000380 40 c7 65 bd 9a 53 f8 3d e6 3e 27 3c 82 7e c8 bc
       -0.056098223 0.12125321 0.010207867 -0.024474386
000390 93 93 ba 3d 31 fb c6 bd d5 6f ff bc 78 39 21 3e
       0.09110179 -0.0971588 -0.031181255 0.15744579
0003a0 4a b8 5e 3d e8 57 a4 3d 77 3a cd 3d 78 e6 36 bd
       0.05437497 0.08024579 0.10020917 -0.044653386
0003b0 9c 8a e9 3c 3a 3c 26 3e 2d d7 e8 bd fb dd 70 bc
       0.028508477 0.16233912 -0.113691665 -0.014701362
0003c0 8c 87 e1 bd 3d cf 34 bd 0f b9 b9 bc 5c f6 04 bd
       -0.11012182 -0.04414295 -0.02267125 -0.03246151
0003d0 18 7d e6 3d 66 91 a3 3d 1b 74 16 be b2 c2 a1 bd
       0.112543285 0.07986717 -0.14692728 -0.07898463
0003e0 87 cc 5f 3d 1f 37 e0 3d ea 42 0d bd 4d f2 af bd
       0.05463841 0.109480135 -0.034487642 -0.08591137
0003f0 6c 32 63 3d 6a 62 80 bd 7d 28 f8 3d 90 08 da bc
       0.055468008 -0.06268771 0.121170975 -0.026615411

fc2.bias f4 [50]
000000 50 4b 60 3a 72 51 f0 3d 76 2e 97 3d d7 c3 2c bb
       0.00085561443 0.117342845 0.073819086 -0.0026361847
000010 38 92 9d 3d ca 13 ee 3a 8b 2a ec 3d 5f 5f aa 3e
       0.07693905 0.0018163857 0.11531552 0.33275887
000020 fa 3d cf bd 60 77 97 3e ea 29 59 3d 28 8f b9 bc
       -0.10119243 0.29583263 0.053018488 -0.02265127
000030 03 f1 ed bd 68 17 d2 3d b3 22 8e 3d ff c0 c7 3e
       -0.11618235 0.10258371 0.06940212 0.39014432
000040 c8 71 8e 3d 3e 22 c2 3d 3d da ac 3e c1 27 d1 bd
       0.06955296 0.094791874 0.33760253 -0.102126606
000050 8a bf f7 bd 96 02 03 be 25 1a 83 3e 12 32 96 bd
       -0.1209708 -0.12793955 0.25605884 -0.07333769
000060 70 ca bc 3d e2 ff 99 3d a8 26 0b be 47 6b c7 bb
       0.092182994 0.07519509 -0.13588965 -0.0060857865
000070 d4 54 d0 3d 65 6b 53 3e 84 b1 d9 bc de f4 ea 3a
       0.1017243 0.20646437 -0.026573904 0.0017925759
000080 99 9f c7 bb ab 1d c7 bd 06 f2 50 be 1f 15 94 bc
       -0.0060920236 -0.097224556 -0.20404825 -0.018076478
000090 e0 43 db 3d 24 e6 1a 3d f2 07 a4 bd 93 84 01 bd
       0.107063055 0.037817135 -0.08009328 -0.031620573
0000a0 96 c6 43 3e 0d 49 eb 3d df 26 e0 bd a1 10 29 bc
       0.19118723 0.11488543 -0.10944914 -0.010318906
0000b0 c2 d0 13 3e 76 6e 83 3e c4 43 88 bd 7b 39 f2 3d
       0.14435104 0.25670213 -0.0665355 0.1182737
0000c0 6e 38 ba bd 35 42 98 bd
       -0.09092794 -0.07434503

fc3.weight f4 [1, 50]
000000 0a e0 20 be 4d 8f 81 be 17 69 41 3e 77 10 ef 3d
       -0.15710464 -0.25304642 0.18887745 0.11673062
000010 62 6f 34 be 9c 74 ec bd 9c 2f eb 3d 2b 17 15 bf
       -0.17620614 -0.11545679 0.1148369 -0.58238477
000020 9c 8c af 3e 33 02 05 bf bc 88 a4 3d 7c a0 19 be
       0.34286964 -0.5195648 0.080338925 -0.15002626
000030 6e 46 5b 3e 95 f3 04 be 41 17 90 bd ea fe 3b bf
       0.21413586 -0.12983544 -0.07035685 -0.73435843
000040 70 94 23 3c ee f2 0f 3d 57 62 0d bf 24 d6 a7 bb
       0.009984121 0.035143785 -0.5522818 -0.005121963
000050 e4 61 a2 3e 3e bd e8 3e 92 63 bd be a7 26 d1 3e
       0.3171531 0.4545688 -0.3699003 0.40849802
000060 45 60 e3 bd 99 74 21 be 42 66 3f 3e 16 66 8a bd
       -0.11102346 -0.15767135 0.18691352 -0.067577526
000070 2b 7e 64 be dd b7 8a be 07 29 b9 3e 94 78 19 bd
       -0.22313754 -0.27093402 0.36164114 -0.037468508
000080 6e 16 65 3e 53 61 32 be f7 95 d2 3e 02 d2 95 bd
       0.22371837 -0.17419939 0.4113004 -0.073154464
000090 88 e0 71 3d 35 56 4c be 3c 46 2d 3e 88 dc 72 be
       0.05905202 -0.1995476 0.16921324 -0.23716938
0000a0 3b 0e 8a be 3d c4 06 be 95 00 87 3d 9c 6c 2e bd
       -0.26963982 -0.13160796 0.06591908 -0.042584047
0000b0 06 f9 e3 bd 36 f7 ad be 3e f1 45 be 2d 55 53 be
       -0.11131482 -0.3397767 -0.19330308 -0.2063796
0000c0 e7 0f 57 be 63 8c 45 bd
       -0.2100216 -0.048229586
